assets/converted_model.tflite (tflite, 541496 bytes, 8 tensors)

dense_3/bias f4 [10]
0	0x3c5454b5	0.012959649
1	0x3e165613	0.14681272
2	0xbdd73e94	-0.10509983
3	0xbd32b989	-0.04363397
4	0x3cc99045	0.024604926
5	0x3ca5aee9	0.020225005
6	0x3e08f896	0.13376078
7	0x3cfc276f	0.030780522
8	0xbe6020ce	-0.21887514
9	0x3dab6d67	0.08370476

dense_2/bias f4 [128]
0	0x3dda6222	0.106632486
1	0x3df22310	0.11823094
2	0x3d9b6985	0.07588486
3	0x3dccd7f4	0.10002127
4	0x3b0d1dc9	0.0021532646
5	0x3db7d68f	0.08976471
6	0xbc955a6a	-0.01823159
7	0x3d9231bb	0.071383916
8	0x3d819732	0.06327666
9	0x3ddb18dd	0.10698102
10	0xbc9dba39	-0.019253837
11	0x3da9de39	0.08294339
12	0x3d95136f	0.07279097
13	0x3d5a8f9f	0.053359624
14	0x3d7fa67a	0.062414624
15	0x3d9b8f1e	0.07595657
16	0xbcba3311	-0.022729428
17	0x3d94246f	0.07233512
18	0x3d98f381	0.0746832
19	0x3d39eb62	0.045390494
20	0x3d803ac9	0.062612124
21	0xbd5c8eeb	-0.053847235
22	0x3cd70b82	0.026250605
23	0xbc41216f	-0.011787756
24	0x3d8cdf6f	0.06878554
25	0x3daecc44	0.08535054
26	0xbc5ce3a2	-0.013482006
27	0x3d8730f9	0.06601138
28	0xbc85dc38	-0.01634036
29	0x3e0efa77	0.13962732
30	0xbc6911d9	-0.014225447
31	0x3d6dd6cd	0.058066178
32	0x3d7a6c09	0.061138187
33	0x3e0080bb	0.12549107
34	0x3dc5dc71	0.096611865
35	0x3d4e24a6	0.05032792
36	0x3e11f87f	0.1425495
37	0xbbe4e2c8	-0.0069850422
38	0xbc486590	-0.012231246
39	0xbd06fb2d	-0.032954384
40	0x3dfd3458	0.123634994
41	0x3d1f4b5b	0.038890224
42	0x3df36c0c	0.11885843
43	0x3e0cef57	0.13763176
44	0x3d4c1550	0.049825013
45	0x3dc9e194	0.09857479
46	0xbc9ccd02	-0.019140724
47	0x3d16bbdf	0.03680026
48	0x3da0ab1d	0.07845137
49	0x3d740d9e	0.0595833
50	0xbc980816	-0.018558543
51	0x3d89afdd	0.067229964
52	0xbc76a925	-0.015054976
53	0x3dd3f678	0.103497446
54	0x3ddb1e7b	0.10699173
55	0x3da114f5	0.07865325
56	0x3e0cf380	0.13764763
57	0xbc7390ce	-0.014866067
58	0xbc86917b	-0.016426792
59	0x3e14db16	0.145367
60	0x3d8ff5e6	0.07029323
61	0x3e3becf4	0.18352109
62	0xbcbc2b0f	-0.02296975
63	0x3d90260d	0.070385076
64	0xbc7d9abb	-0.015478785
65	0xbcaee731	-0.021350475
66	0x3d9dc5b4	0.077037245
67	0x3e595789	0.21224798
68	0x3ddcf982	0.10789777
69	0xbca399b7	-0.019970758
70	0x3db29ec7	0.087216906
71	0x3ded2c9c	0.11580774
72	0x3d54e78b	0.05197863
73	0x3d1cfb10	0.03832537
74	0x3e18e610	0.14931512
75	0x3cf4735f	0.02984017
76	0xbb48135d	-0.003052912
77	0x3d9922ab	0.074773155
78	0x3e090c0c	0.13383502
79	0xbcb8d93f	-0.022564529
80	0x3dfc6318	0.12323588
81	0x3da80fe4	0.08206156
82	0x3d6e57f9	0.058189366
83	0x3d73c49c	0.059513673
84	0xbac0ea19	-0.0014718204
85	0x3dbeb596	0.093119785
86	0x3d7d33bf	0.061816927
87	0x3d9878d1	0.07444919
88	0xbc7fb3b3	-0.0156068085
89	0x3e129ac9	0.14316858
90	0x3d44beb3	0.048033427
91	0x3d81c1e8	0.06335813
92	0x3d11793b	0.035516005
93	0xbc9bcec4	-0.019019492
94	0x3da1fbc7	0.07909351
95	0x3e0de045	0.13855083
96	0x3db96ecb	0.09054335
97	0x3dc8e884	0.09809974
98	0x3e01e335	0.12684329
99	0xbc8b3dd7	-0.016997261
100	0x3d748e6f	0.059706148
101	0x3db52331	0.08844603
102	0xbc202612	-0.009774702
103	0x3dc9681f	0.09834313
104	0x3d398aea	0.045298494
105	0x3d1672a6	0.03673043
106	0x3d3b1cdf	0.04568183
107	0x3d9b4e26	0.07583265
108	0xbb56da7e	-0.003278404
109	0x3d9e7cea	0.07738669
110	0x3db253c3	0.087073825
111	0x3dba9202	0.0910988
112	0x3d20c419	0.039249513
113	0x3d61ce37	0.055128302
114	0x3d7c8f37	0.061660018
115	0xbca5104d	-0.020149374
116	0xbc9b2b50	-0.018941551
117	0x3e060c8b	0.13090722
118	0x3d424204	0.04742624
119	0x3d24d408	0.04024127
120	0x3d6b463c	0.057440028
121	0x3d6b724d	0.057482053
122	0x3da3f48e	0.080056295
123	0x3d7f2dd2	0.062299557
124	0x3e083f85	0.13305481
125	0x3dc5dc24	0.09661129
126	0x3d849ba8	0.064750016
127	0x3ca1de7c	0.01975941

dense_1/bias f4 [128]
0	0xb90dabea	-0.00013510851
1	0xbadcd292	-0.0016847423
2	0xbc33bf9e	-0.010970978
3	0xbbe5c7bf	-0.007012337
4	0xb7865ece	-1.6018192e-05
5	0xbc4e3611	-0.012586133
6	0xbb114cdc	-0.0022171056
7	0xba249943	-0.00062789413
8	0xb88d338d	-6.733006e-05
9	0xbc24e405	-0.01006413
10	0xbcb083ac	-0.021547161
11	0x3dbf3a02	0.09337236
12	0x3e858238	0.26075912
13	0xbc4d07b8	-0.012514047
14	0xb9f289a8	-0.000462604
15	0xb9c2371c	-0.00037043623
16	0xbadec21d	-0.0016995106
17	0xb809b4d8	-3.283177e-05
18	0xbb31dd35	-0.0027139906
19	0xb9ffad7a	-0.0004876664
20	0xbce5f07c	-0.028068773
21	0xb957e9d0	-0.000205911
22	0x3cdc454c	0.026888512
23	0xbc3e139d	-0.011601356
24	0xbc2c4935	-0.010515501
25	0xb29c0e35	-1.816725e-08
26	0xbc33261c	-0.010934379
27	0xbc5f8ee5	-0.013644909
28	0xbb86ad0b	-0.004109984
29	0xbc16992c	-0.009191792
30	0xbcbf0b2e	-0.02332076
31	0xbcea9c41	-0.02863896
32	0xb82da9b5	-4.1404466e-05
33	0xba9873a6	-0.0011631146
34	0xbb1820b2	-0.0023212847
35	0xba135ec9	-0.0005621729
36	0xb96de71c	-0.00022688176
37	0xbca30192	-0.01989821
38	0xb9c14cf2	-0.00036869157
39	0xbbbbddc3	-0.005733223
40	0xba125bf2	-0.0005583159
41	0xbd0d25c2	-0.034459837
42	0xb8d140f4	-9.977995e-05
43	0x3dfe036f	0.12402999
44	0xbcb0cd90	-0.021582395
45	0xbdb63967	-0.088976674
46	0xbac9b541	-0.0015389101
47	0xbc23bd58	-0.009993874
48	0xb707ad67	-8.087e-06
49	0xbd39a011	-0.045318667
50	0xbc93f591	-0.018061431
51	0xb9d2f06f	-0.00040233458
52	0xbbaf15ab	-0.005343159
53	0xb9e10087	-0.00042915737
54	0xbabe023b	-0.0014496514
55	0xbc8f72b0	-0.017510742
56	0xbc6afaf7	-0.014342061
57	0xbac44bdf	-0.0014976225
58	0xbbafb0fa	-0.0053616734
59	0xba42b48a	-0.0007427415
60	0xb8e3d98d	-0.000108647255
61	0xb9e2165f	-0.00043122747
62	0xba53b66c	-0.0008076194
63	0xbc566788	-0.013086207
64	0xbc3d33ec	-0.011548024
65	0xb98da65e	-0.0002701757
66	0xba4036e2	-0.0007332397
67	0xbb6f17df	-0.0036482734
68	0xae04f486	-3.0230506e-11
69	0xb9c37cb4	-0.0003728621
70	0xb9c85fb4	-0.00038218277
71	0xba351939	-0.00069083605
72	0xbd99b294	-0.07504764
73	0x3dc19f72	0.0945424
74	0xb80bf3a3	-3.3367087e-05
75	0xbc9464ba	-0.018114436
76	0xb90ecbb0	-0.00013618055
77	0xbc280b54	-0.010256607
78	0xb48760b6	-2.5216076e-07
79	0xbc3137e7	-0.010816551
80	0xbbf4a493	-0.007465908
81	0xbc8e23fa	-0.01735114
82	0xbb88b29e	-0.0041716835
83	0xb9c34e8a	-0.00037251815
84	0xbc41029d	-0.011780408
85	0xbb05aa74	-0.0020395787
86	0xba0f545a	-0.00054675865
87	0xba0c7df6	-0.0005359346
88	0xbc23b1d9	-0.009991133
89	0xb9ec7e42	-0.00045107497
90	0xbc42ee8d	-0.011897695
91	0xba4ad335	-0.0007737161
92	0xbb9c29bd	-0.004765718
93	0xbc7702d0	-0.015076354
94	0xba9c0831	-0.0011904297
95	0xbc83853e	-0.016054746
96	0xbc327104	-0.010891203
97	0xbc017eff	-0.007903813
98	0xba9c8856	-0.0011942487
99	0xbbd8858e	-0.006607718
100	0xbb290e24	-0.0025795782
101	0xb78eca94	-1.7022052e-05
102	0xbd37cdb6	-0.044873916
103	0xb9ba59c0	-0.00035543554
104	0xba992c5c	-0.0011686194
105	0xbb916eaa	-0.004438241
106	0xbe16018b	-0.14649026
107	0xbc515e51	-0.012778834
108	0x3ea76c9b	0.32700047
109	0xbb64b615	-0.0034898568
110	0xbaf3cd4a	-0.001860061
111	0xbab2ede6	-0.0013651222
112	0xbc83b54b	-0.016077658
113	0xb9c47098	-0.00037467922
114	0xb6ddb9d2	-6.6079456e-06
115	0xbbff0268	-0.0077822693
116	0xbc2257d8	-0.009908639
117	0xbc51c65f	-0.012803643
118	0xbcc6bc84	-0.024259813
119	0xb921dc9f	-0.00015436344
120	0xbbcdfee9	-0.006286491
121	0xbc6fe052	-0.0146408845
122	0xb826cb1f	-3.9766655e-05
123	0xbba737b5	-0.0051030763
124	0x3c87ea25	0.016591141
125	0xbc49a7cf	-0.012308075
126	0xbae8f86d	-0.0017774232
127	0xb8756a26	-5.851141e-05

dense/bias f4 [128]
0	0xc1261060	-10.378998
1	0xbf018781	-0.5059739
2	0xc1261081	-10.379029
3	0xc1261087	-10.379035
4	0xc1261085	-10.379033
5	0xc1261082	-10.37903
6	0xc1261081	-10.379029
7	0xc1261084	-10.379032
8	0xbf9064ac	-1.1280723
9	0xc1261086	-10.379034
10	0xc1261085	-10.379033
11	0xc05e77c3	-3.4760597
12	0xc1261085	-10.379033
13	0xc1261085	-10.379033
14	0xc1261084	-10.379032
15	0x3d97f7d6	0.07420318
16	0xc1261083	-10.379031
17	0xc0b5cb0e	-5.681037
18	0xc1261083	-10.379031
19	0xc1261085	-10.379033
20	0xc1261084	-10.379032
21	0xc1261082	-10.37903
22	0xc1261084	-10.379032
23	0xc1261064	-10.379002
24	0xc1261086	-10.379034
25	0xc1261082	-10.37903
26	0xc1261030	-10.378952
27	0xc11c5784	-9.771366
28	0xc125a396	-10.352438
29	0xc1261086	-10.379034
30	0xbf0a643a	-0.54059184
31	0xc125b4ae	-10.356611
32	0xc126107f	-10.379027
33	0xc1261081	-10.379029
34	0xc1261083	-10.379031
35	0xbf0e0a40	-0.5548439
36	0xc1261083	-10.379031
37	0xc1261081	-10.379029
38	0xc1261082	-10.37903
39	0xbed8dacd	-0.42354432
40	0xc1261083	-10.379031
41	0xc1261082	-10.37903
42	0xc1261085	-10.379033
43	0xc1261084	-10.379032
44	0xc1261081	-10.379029
45	0xc1261084	-10.379032
46	0xc1261083	-10.379031
47	0xc1261082	-10.37903
48	0xc1261086	-10.379034
49	0xc1261082	-10.37903
50	0xc1261081	-10.379029
51	0xc1261084	-10.379032
52	0xc1261083	-10.379031
53	0xc1261087	-10.379035
54	0xc1261085	-10.379033
55	0xbf41d64a	-0.75717604
56	0xc1261081	-10.379029
57	0xc1261084	-10.379032
58	0xc1261085	-10.379033
59	0xc1261082	-10.37903
60	0xc1261082	-10.37903
61	0xc1261084	-10.379032
62	0xc1261084	-10.379032
63	0xc125de6c	-10.366802
64	0xc1261084	-10.379032
65	0xc1261084	-10.379032
66	0xbed32524	-0.41239274
67	0xc1261083	-10.379031
68	0xc1261081	-10.379029
69	0xc1261083	-10.379031
70	0xc1261082	-10.37903
71	0xc1261082	-10.37903
72	0xc1261085	-10.379033
73	0xc1261081	-10.379029
74	0xc1261084	-10.379032
75	0xc1261084	-10.379032
76	0xc1261084	-10.379032
77	0xc1261082	-10.37903
78	0xc1261082	-10.37903
79	0xc1261085	-10.379033
80	0xc1261083	-10.379031
81	0xc1261084	-10.379032
82	0xc125d263	-10.363864
83	0xc12053ba	-10.020441
84	0x3c61966d	0.013768774
85	0xc1248ae8	-10.283913
86	0xc1261082	-10.37903
87	0xc1261082	-10.37903
88	0xbef7a90e	-0.48371166
89	0xc1261084	-10.379032
90	0xc1261085	-10.379033
91	0xbdebc763	-0.115126394
92	0xc1261089	-10.379037
93	0xc1261082	-10.37903
94	0xc1261085	-10.379033
95	0xbf066af1	-0.5250693
96	0xc1261084	-10.379032
97	0xc1261084	-10.379032
98	0xc1261063	-10.379001
99	0xc1261086	-10.379034
100	0xc1260632	-10.376513
101	0xc125f614	-10.372578
102	0xc1261086	-10.379034
103	0xc1260507	-10.376227
104	0xbefd5a46	-0.49482936
105	0xc1261081	-10.379029
106	0xc1261085	-10.379033
107	0xc1261085	-10.379033
108	0xc1261083	-10.379031
109	0xc1261083	-10.379031
110	0xc1261081	-10.379029
111	0xc1261085	-10.379033
112	0xc0db94eb	-6.8619285
113	0xc1261006	-10.378912
114	0xc125fda1	-10.374421
115	0xbf20c838	-0.6280551
116	0xc1261085	-10.379033
117	0xc1261084	-10.379032
118	0xc1261080	-10.379028
119	0xc1261087	-10.379035
120	0xc1261084	-10.379032
121	0xc1261085	-10.379033
122	0xbf7536a9	-0.9578653
123	0xc11f7748	-9.966621
124	0xc1261083	-10.379031
125	0xc1261082	-10.37903
126	0xc1261082	-10.37903
127	0xc1261082	-10.37903

sequential/dense/MatMul f4 [128, 784]
0	0x081baf20	4.6849474e-34
1	0x05f3ffd0	2.2945581e-35
2	0x8828c3d0	-5.0785838e-34
3	0x0732a248	1.3438922e-34
4	0x881ca388	-4.7136772e-34
5	0x8819dbe0	-4.6300225e-34
6	0x0824760b	4.9490714e-34
7	0x87d33020	-3.1776037e-34
8	0x0840fc90	5.8074784e-34
9	0x8832f2cd	-5.3850338e-34
10	0x3090a13d	1.0523206e-09
11	0x863c5d48	-3.5427402e-35
12	0x35c71de8	1.4835359e-06
13	0xb1cfcb14	-6.04758e-09
14	0xb817cea0	-3.619364e-05
15	0xb1249cf2	-2.3954354e-09
16	0x08297099	5.0988946e-34
17	0x87cd8f10	-3.0929056e-34
18	0x07d76fc0	3.2415285e-34
19	0x8795a100	-2.2513656e-34
20	0x0834e9f0	5.444177e-34
21	0x068efe28	5.378791e-35
22	0x08046e2e	3.985182e-34
23	0x0839bf6c	5.589643e-34
24	0x87161b54	-1.1292777e-34
25	0x075da2ae	1.6673999e-34
26	0x87e2529e	-3.4053259e-34
27	0x08290d1d	5.0872e-34
28	0x08331b28	5.3897775e-34
29	0x079f5772	2.3975057e-34
30	0x88177009	-4.5571606e-34
31	0x875ebf60	-1.6757664e-34
32	0xacc162c6	-5.496356e-12
33	0xb39b5a70	-7.2342004e-08
34	0xb20f4b4a	-8.340814e-09
35	0x33b84050	8.579866e-08
36	0x333652b8	4.245041e-08
37	0xb55724cc	-8.014729e-07
38	0x338ea0e0	6.641653e-08
39	0x3625c4a0	2.4701367e-06
40	0xb3e1e23c	-1.0518531e-07
41	0xb3f112a0	-1.1225825e-07
42	0xb722f18a	-9.71219e-06
43	0x35a8a802	1.2565872e-06
44	0xb4a37bf2	-3.0451298e-07
45	0x351274cc	5.45592e-07
46	0xb6415b98	-2.8812556e-06
47	0xb7194e42	-9.1377315e-06
48	0x35adbdd2	1.2944749e-06
49	0xb28fbf40	-1.6734361e-08
50	0x342ba6f4	1.5986353e-07
51	0xb4dd38de	-4.1205834e-07
52	0x07172957	1.1372126e-34
53	0x874a14f8	-1.5202953e-34
54	0x8715efe6	-1.1280014e-34
55	0x871ae760	-1.1653667e-34
56	0x081633a8	4.5199705e-34
57	0x080d2148	4.2469766e-34
58	0x38d5b8dc	0.00010191064
59	0xb478aaf8	-2.3158998e-07
60	0xae961dca	-6.826502e-11
61	0x3391d6ce	6.7911614e-08
62	0x38cb5ccf	9.697081e-05
63	0x38093978	3.2716867e-05
64	0xb7b8f57a	-2.2048818e-05
65	0xb62061ec	-2.3898856e-06
66	0x36f062cd	7.1640593e-06
67	0xb40b236c	-1.295827e-07
68	0x378d82b8	1.686938e-05
69	0x381955a3	3.6557798e-05
70	0xb6965931	-4.4807316e-06
71	0x371d2bda	9.368139e-06
72	0xb7976b26	-1.8050498e-05
73	0x3680f8f0	3.8436774e-06
74	0x342f7f78	1.6344518e-07
75	0x3792a98e	1.7483511e-05
76	0x36d2833e	6.2737663e-06
77	0xb6284521	-2.507419e-06
78	0xb6e76986	-6.896621e-06
79	0xb5430a90	-7.265853e-07
80	0x31abcc6c	4.999995e-09
81	0xb6df9660	-6.663424e-06
82	0x05857f08	1.2553924e-35
83	0x079c7d10	2.3545776e-34
84	0x8835e9b1	-5.474241e-34
85	0x07801d78	1.927662e-34
86	0x2eae7e7d	7.935073e-11
87	0xb745bb8f	-1.1785784e-05
88	0x2f4b72a0	1.8503465e-10
89	0xb570d6fb	-8.9719805e-07
90	0xb30a8ca3	-3.2258537e-08
91	0x36a246de	4.8362263e-06
92	0xb618e418	-2.2782533e-06
93	0xb55f0600	-8.3082705e-07
94	0xb62fa5fe	-2.6173652e-06
95	0x36382158	2.7437545e-06
96	0xb5fe0fb3	-1.8929044e-06
97	0x365a144e	3.249635e-06
98	0xb6d15b54	-6.2393174e-06
99	0x37882e85	1.6234126e-05
100	0xb6b563d2	-5.405841e-06
101	0x37b3c8c8	2.1431959e-05
102	0x370064b0	7.652838e-06
103	0xb7818a88	-1.5442507e-05
104	0x36448344	2.9282683e-06
105	0xb78e7367	-1.6981458e-05
106	0x3690a06e	4.310211e-06
107	0x36e50e94	6.826429e-06
108	0xb7faf9a0	-2.9918563e-05
109	0x3596c023	1.123179e-06
110	0x30a55de6	1.2032018e-09
111	0x0832b291	5.377483e-34
112	0x88123f94	-4.4010013e-34
113	0xad629809	-1.2880371e-11
114	0xb332cbb8	-4.1629136e-08
115	0x361c6dff	2.3309838e-06
116	0xb3492d80	-4.684034e-08
117	0xb51c820c	-5.830377e-07
118	0x35d5b0d4	1.59212e-06
119	0xb6e768b5	-6.896526e-06
120	0xb78f17d1	-1.7058019e-05
121	0xb5921068	-1.0882623e-06
122	0xb78f0a80	-1.7051818e-05
123	0xb6e81f38	-6.917773e-06
124	0x351f1248	5.925872e-07
125	0x3611afa2	2.1708915e-06
126	0x3601ca4c	1.934025e-06
127	0x3637fc08	2.7415826e-06
128	0x37995a82	1.8281167e-05
129	0x375fd312	1.3340979e-05
130	0xb6326d75	-2.658778e-06
131	0xb799e492	-1.8345458e-05
132	0x36620a28	3.3682536e-06
133	0x3747db08	1.19123215e-05
134	0x37a81e1c	2.0041181e-05
135	0x368e96ee	4.2495003e-06
136	0x35743be0	9.0984213e-07
137	0x36e3935c	6.782282e-06
138	0xb3e41188	-1.0620266e-07
139	0x370fbf7c	8.568048e-06
140	0x06f2c1d6	9.13151e-35
141	0x87635d3e	-1.7104983e-34
142	0xaeeb8a09	-1.0711083e-10
143	0xb5cae0aa	-1.5115559e-06
144	0xb7ae05dc	-2.0745145e-05
145	0xb88f5f07	-6.8364716e-05
146	0xb701be13	-7.733254e-06
147	0xb7207aa5	-9.565299e-06
148	0xb75dd712	-1.3222701e-05
149	0xb81136fc	-3.4621902e-05
150	0xb82e36c6	-4.1535845e-05
151	0xb79e710e	-1.8887713e-05
152	0xb73f08e0	-1.13865535e-05
153	0x3731f6b4	1.0607462e-05
154	0xb5f768b0	-1.8433402e-06
155	0xb6e52b2c	-6.8297577e-06
156	0x3738a106	1.1004746e-05
157	0x37912342	1.7301765e-05
158	0x37b28702	2.1282121e-05
159	0x3729fde4	1.01322985e-05
160	0xb7ef6186	-2.8536433e-05
161	0xb83fc260	-4.5718974e-05
162	0x385c3d38	5.25091e-05
163	0x3764f806	1.36476065e-05
164	0xb4cf9eeb	-3.8672383e-07
165	0x3804fb94	3.1705553e-05
166	0x3530d464	6.587418e-07
167	0x3806e323	3.2159627e-05
168	0x0810eab0	4.3609298e-34
169	0x2ec79db0	9.077483e-11
170	0xb90266c0	-0.00012436043
171	0x3490e5ec	2.698938e-07
172	0xb743c250	-1.1668148e-05
173	0x3688eaac	4.0804352e-06
174	0xb79acd23	-1.8453755e-05
175	0xb8381c48	-4.3895358e-05
176	0xb81fcfda	-3.810213e-05
177	0xb75a7da4	-1.3023066e-05
178	0xb7de8678	-2.652708e-05
179	0xb6e35808	-6.7753754e-06
180	0x37877239	1.6146443e-05
181	0xb6fe7254	-7.5830994e-06
182	0x37a27b5e	1.9369352e-05
183	0x379aa574	1.8435276e-05
184	0x37357866	1.0816473e-05
185	0x37bb8f0e	2.2358752e-05
186	0x37b9471b	2.208683e-05
187	0x381d49b0	3.7500344e-05
188	0x35b062dc	1.3141794e-06
189	0xb7f78b0e	-2.9509447e-05
190	0xb82c4337	-4.1070594e-05
191	0x36646d20	3.4038167e-06
192	0xb7537b89	-1.2605343e-05
193	0x3816f1f1	3.5988112e-05
194	0xb7ddd15a	-2.644274e-05
195	0xb0982900	-1.1071108e-09
196	0xb6000bf7	-1.908045e-06
197	0x353d9140	7.0619353e-07
198	0x3783eea2	1.5727539e-05
199	0xb3c58d89	-9.1992725e-08
200	0xb5c92a96	-1.4988061e-06
201	0xb6ab88c8	-5.1121206e-06
202	0xb8047f3f	-3.158976e-05
203	0xb7f294b8	-2.89179e-05
204	0xb705f538	-7.984512e-06
205	0xb7b5a2c4	-2.1652675e-05
206	0xb7839f56	-1.5690614e-05
207	0xb77c9836	-1.505581e-05
208	0x36a4bd57	4.909623e-06
209	0x37d3ee88	2.5264235e-05
210	0x3500f9bc	4.804713e-07
211	0x3739e834	1.1080923e-05
212	0x35257110	6.163182e-07
213	0x37bb157a	2.2302138e-05
214	0x380ecf5f	3.4048568e-05
215	0x3757359e	1.2827482e-05
216	0xb514a200	-5.537004e-07
217	0xb78966b4	-1.6379498e-05
218	0x3776a46c	1.4701025e-05
219	0xb7b92b14	-2.2073778e-05
220	0x33b0c6e0	8.231814e-08
221	0x379faf56	1.9035924e-05
222	0x36799bd2	3.719459e-06
223	0xb25d3c5e	-1.2877619e-08
224	0xada1e664	-1.8405895e-11
225	0x37808f9e	1.5325666e-05
226	0xb7029df8	-7.785384e-06
227	0xb76c9890	-1.4102217e-05
228	0xb72507fb	-9.8366245e-06
229	0xb71a7848	-9.2071205e-06
230	0xb726dee8	-9.94627e-06
231	0xb7bee08a	-2.2754324e-05
232	0xb7d03add	-2.4822943e-05
233	0xb7b1fc86	-2.1217635e-05
234	0xb7ed9f94	-2.8326911e-05
235	0xb700f458	-7.686285e-06
236	0x382a0ed2	4.054496e-05
237	0xb71abb68	-9.222749e-06
238	0x366b5720	3.5068442e-06
239	0x37ef6a75	2.8540593e-05
240	0x37bc72f8	2.2464883e-05
241	0x37cc7ff4	2.4378278e-05
242	0x376ef9e5	1.4244089e-05
243	0x37ef058e	2.8493607e-05
244	0x373968e0	1.1051277e-05
245	0xb77693b9	-1.4697137e-05
246	0x3772ba50	1.4467703e-05
247	0x361589b9	2.2282895e-06
248	0xb7aebf7e	-2.0831587e-05
249	0x37254e9f	9.853072e-06
250	0xb49bd14c	-2.9023283e-07
251	0xb8c6f4dd	-9.486985e-05
252	0xad212c55	-9.161634e-12
253	0x36007e2f	1.9146935e-06
254	0x33d48ab2	9.897248e-08
255	0xb5e84647	-1.73058e-06

sequential/dense_1/MatMul f4 [128, 128]
0	0x07ddb056	3.3356025e-34
1	0x87a0465d	-2.411548e-34
2	0x07c92530	3.0264976e-34
3	0x0842ed08	5.865838e-34
4	0x07c477ec	2.9561286e-34
5	0x88431fd6	-5.87181e-34
6	0x0602acc4	2.457721e-35
7	0x07af7b74	2.6403633e-34
8	0x880e6c9c	-4.285924e-34
9	0x88214050	-4.8524774e-34
10	0x878b298b	-2.0938812e-34
11	0x8707722c	-1.0189823e-34
12	0x8797bee8	-2.283216e-34
13	0x872a03c5	-1.2790486e-34
14	0x06ca5ab5	7.6117237e-35
15	0x083358c3	5.397019e-34
16	0x07bd0335	2.8439444e-34
17	0x06c177e9	7.2774723e-35
18	0x873892bf	-1.3885746e-34
19	0x06025072	2.4509384e-35
20	0x080bef3f	4.2110023e-34
21	0x0843c726	5.8914776e-34
22	0x082cac07	5.1961584e-34
23	0x08159e26	4.502396e-34
24	0x07dc007c	3.3102206e-34
25	0x8787904c	-2.0397352e-34
26	0x8637d7d8	-3.4577052e-35
27	0x07cbd88c	3.067132e-34
28	0x881d0ebe	-4.72628e-34
29	0x08232779	4.909743e-34
30	0x8810d9b0	-4.3589314e-34
31	0x044b7520	2.3916316e-36
32	0x8749e66a	-1.5189272e-34
33	0x061e530c	2.977751e-35
34	0x07f62c88	3.704014e-34
35	0x86d2ac7a	-7.924665e-35
36	0x07a87105	2.5344257e-34
37	0x0783a643	1.980841e-34
38	0x06f4b68c	9.205083e-35
39	0x08154b4a	4.492656e-34
40	0x87b00211	-2.6482751e-34
41	0x87949d85	-2.2361147e-34
42	0x04f1fe00	5.689209e-36
43	0x87c240ca	-2.9227955e-34
44	0x8757c8df	-1.6233833e-34
45	0x8702e6c9	-9.847935e-35
46	0x063f54fa	3.5985538e-35
47	0x880c8f90	-4.2298474e-34
48	0x882be837	-5.173141e-34
49	0x0806860e	4.048174e-34
50	0x88341410	-5.4190363e-34
51	0x07db970a	3.304023e-34
52	0x07b53cac	2.7269513e-34
53	0x868536b0	-5.0109396e-35
54	0x88347e4e	-5.431525e-34
55	0x07fde9a9	3.8204542e-34
56	0x081d919f	4.7416646e-34
57	0x87ff5a09	-3.8421054e-34
58	0x0761354a	1.6942779e-34
59	0x86b7b196	-6.909789e-35
60	0x881a79be	-4.6485797e-34
61	0x8602da0c	-2.4610478e-35
62	0x079a3f7c	2.3208657e-34
63	0x876ec70a	-1.7963622e-34
64	0x87f13b5e	-3.6296543e-34
65	0x0761d4f8	1.6989705e-34
66	0x05aec10c	1.6433796e-35
67	0x8805d9c5	-4.027922e-34
68	0x07fed637	3.8343577e-34
69	0x0721bbd1	1.2167488e-34
70	0x07a4087b	2.4680962e-34
71	0x87cd5cea	-3.0899582e-34
72	0x07ed4242	3.569874e-34
73	0x87bfeb0e	-2.8876639e-34
74	0x07bd6d6b	2.850187e-34
75	0x080d1909	4.2460073e-34
76	0x8685ca13	-5.032596e-35
77	0x07de1590	3.341552e-34
78	0x87a36427	-2.4584378e-34
79	0x07820fe8	1.9569575e-34
80	0x07360f9a	1.3696743e-34
81	0x882e70f2	-5.2493987e-34
82	0x87f65df5	-3.706919e-34
83	0x067a1da5	4.7041553e-35
84	0x0801f997	3.9112917e-34
85	0x82f8f780	-3.6582383e-37
86	0x86664a61	-4.3312837e-35
87	0x8429e6f0	-1.9971896e-36
88	0x8712d84a	-1.1047381e-34
89	0x06328211	3.3573637e-35
90	0x87f4c5e8	-3.6829358e-34
91	0x07e9e378	3.5191638e-34
92	0x87b3fbe8	-2.7080984e-34
93	0x07d34908	3.1790675e-34
94	0x88171fd4	-4.5477323e-34
95	0x07318a4d	1.3356643e-34
96	0x86fd3c3f	-9.5256546e-35
97	0x86867efa	-5.0591773e-35
98	0x0808330c	4.0986017e-34
99	0x083ab504	5.618512e-34
100	0x87e4afc9	-3.4408944e-34
101	0x04f5e080	5.7805394e-36
102	0x872afb19	-1.286317e-34
103	0x0778868d	1.8696987e-34
104	0x082820f3	5.0594393e-34
105	0x8743135a	-1.4675856e-34
106	0x871a5968	-1.1611946e-34
107	0x0705d66c	1.0068821e-34
108	0x8828667b	-5.0676126e-34
109	0x070312fd	9.860925e-35
110	0x874f2546	-1.5583903e-34
111	0x8708ae18	-1.0282664e-34
112	0x0784e358	1.9994773e-34
113	0x07937a62	2.2190032e-34
114	0x87398daa	-1.3959484e-34
115	0x876ce01a	-1.7820524e-34
116	0x07a0bf84	2.4186687e-34
117	0x04b481f0	4.2437125e-36
118	0x05ebc5ac	2.2171907e-35
119	0x8826162d	-4.9979875e-34
120	0x85c8d0ca	-1.8884607e-35
121	0x87e4a36e	-3.4401682e-34
122	0x878a2144	-2.0783484e-34
123	0x87a44719	-2.4717765e-34
124	0x8793d9ce	-2.2246116e-34
125	0x87e43c98	-3.434124e-34
126	0x07be2ace	2.861318e-34
127	0x88003e7c	-3.859205e-34
128	0x87964390	-2.2609201e-34
129	0x07ec7e94	3.558373e-34
130	0x07a19969	2.4314754e-34
131	0x080abb70	4.1748196e-34
132	0x07e60058	3.4606756e-34
133	0x8836be8a	-5.499261e-34
134	0x8829f38a	-5.1142866e-34
135	0x06d8b452	8.1515126e-35
136	0x8707f592	-1.0228438e-34
137	0x8698dcaa	-5.750028e-35
138	0x0809552b	4.1327052e-34
139	0x86d6fef4	-8.0872473e-35
140	0x0838d62a	5.5622235e-34
141	0x8805935a	-4.0196443e-34
142	0x071966fd	1.1540706e-34
143	0x87b7e179	-2.76673e-34
144	0x8702141e	-9.786025e-35
145	0x07aa4302	2.561814e-34
146	0x07826884	1.9621655e-34
147	0x072412b6	1.2343487e-34
148	0x07eb12fe	3.5370033e-34
149	0x87158984	-1.1249926e-34
150	0x07707126	1.8088845e-34
151	0x082b75cf	5.1596924e-34
152	0x878c1c42	-2.1081467e-34
153	0x0657fccf	4.062274e-35
154	0x07520a10	1.5801601e-34
155	0x87e40b68	-3.431233e-34
156	0x87914ea3	-2.1863394e-34
157	0x8715af00	-1.1260942e-34
158	0x8694eeb4	-5.6022155e-35
159	0x875b9df8	-1.6522152e-34
160	0x879b8e85	-2.3405573e-34
161	0x0653872a	3.9783992e-35
162	0x88191641	-4.606792e-34
163	0x0813cd99	4.447788e-34
164	0x07985d80	2.2925372e-34
165	0x87857332	-2.0079322e-34
166	0x874d8d2a	-1.546397e-34
167	0x08045f15	3.9834073e-34
168	0x0784a937	1.9960608e-34
169	0x0800d309	3.876667e-34
170	0x87944dda	-2.2314322e-34
171	0x8799f22d	-2.316322e-34
172	0x071f6e67	1.1994275e-34
173	0x87c3f9b2	-2.9487097e-34
174	0x874dd40f	-1.5484804e-34
175	0x883dbf63	-5.7100093e-34
176	0x84ac2778	-4.0473252e-36
177	0x081fea71	4.8122907e-34
178	0x882ba26d	-5.164937e-34
179	0x08058dcc	4.0189913e-34
180	0x0740ee06	1.4514423e-34
181	0x08324cfc	5.365542e-34
182	0x873fd130	-1.4430718e-34
183	0x07ca39b8	3.0427506e-34
184	0x0767c67d	1.7436839e-34
185	0x87a2517a	-2.4422938e-34
186	0x0676b69e	4.6401624e-35
187	0x07990375	2.3022913e-34
188	0x058c101e	1.3171457e-35
189	0x882e80a0	-5.251242e-34
190	0x8646ace0	-3.736667e-35
191	0x07f51d98	3.6880896e-34
192	0x068db2e0	5.330114e-35
193	0x87bd7001	-2.850339e-34
194	0x079d15e4	2.36356e-34
195	0x8804691a	-3.984585e-34
196	0x8776d18f	-1.8568567e-34
197	0x07d9739f	3.2718487e-34
198	0x082ce2c0	5.202591e-34
199	0x08227fff	4.890056e-34
200	0x87711802	-1.813788e-34
201	0x06d1dada	7.8938636e-35
202	0x08022546	3.9164267e-34
203	0x080aa233	4.171853e-34
204	0x0813238b	4.4277984e-34
205	0x0702b3e0	9.832974e-35
206	0x86a97ddf	-6.3755685e-35
207	0x07712155	1.814062e-34
208	0x883864df	-5.548906e-34
209	0x88306f42	-5.3093856e-34
210	0x8820d658	-4.840021e-34
211	0x875fab34	-1.6826967e-34
212	0x082cb0c7	5.196717e-34
213	0x07a83f1e	2.5314927e-34
214	0x07599998	1.6370403e-34
215	0x878a266c	-2.0786515e-34
216	0x07b4a21a	2.7178665e-34
217	0x878a2100	-2.0783328e-34
218	0x87d964e0	-3.270982e-34
219	0x876c29b4	-1.7766922e-34
220	0x87dd9536	-3.3340083e-34
221	0x05c8e00e	1.8890214e-35
222	0x0830da79	5.3219887e-34
223	0x880207f6	-3.912981e-34
224	0x87a8644e	-2.5336784e-34
225	0x07dc5cbb	3.3156423e-34
226	0x0510b464	6.80398e-36
227	0x060e7074	2.678985e-35
228	0x076103fd	1.6928291e-34
229	0x8677833d	-4.6551955e-35
230	0x071579aa	1.1245268e-34
231	0x880dba15	-4.2649382e-34
232	0x07840641	1.9864828e-34
233	0x862d18d2	-3.255592e-35
234	0x07819d6d	1.950229e-34
235	0x073bc470	1.4126044e-34
236	0x08391b09	5.570319e-34
237	0x8796973a	-2.2658375e-34
238	0x07a16841	2.4285863e-34
239	0x05828564	1.2274141e-35
240	0x8820feff	-4.8447995e-34
241	0x07b0d65c	2.6607526e-34
242	0x8518a642	-7.1775424e-36
243	0x87b48ea7	-2.7167233e-34
244	0x07ce7b71	3.1067987e-34
245	0x0828b3c4	5.0766975e-34
246	0x0819ea63	4.6317283e-34
247	0x07939111	2.2203364e-34
248	0x8821527c	-4.8546135e-34
249	0x8727991c	-1.2608678e-34
250	0x871e4619	-1.1907199e-34
251	0x08281d6c	5.0590246e-34
252	0x07c79431	3.0029291e-34
253	0x872a8837	-1.2829408e-34
254	0x0697c05d	5.708254e-35
255	0x07b50889	2.723887e-34

sequential/dense_2/MatMul f4 [128, 128]
0	0x86de96c8	-8.372867e-35
1	0x87ccfec0	-3.0844237e-34
2	0x0823983c	4.922998e-34
3	0x87490db8	-1.5125591e-34
4	0x073e8b0d	1.4334875e-34
5	0x0809f09a	4.1509764e-34
6	0x8833d072	-5.411088e-34
7	0x07692a95	1.7541485e-34
8	0x0830191c	5.299259e-34
9	0xbcf5d308	-0.030007854
10	0x0843c8d2	5.891674e-34
11	0x3d4ea4d4	0.05045016
12	0x3a98bff9	0.0011653892
13	0x883be1d1	-5.653871e-34
14	0x06f30353	9.1411325e-35
15	0x881e8371	-4.7700904e-34
16	0x86bc627c	-7.086245e-35
17	0x882c8dbe	-5.1925984e-34
18	0x0802147a	3.914452e-34
19	0x0822af26	4.895599e-34
20	0x88317fa6	-5.341405e-34
21	0x079e343c	2.3803898e-34
22	0xbe008cb6	-0.12553677
23	0x85c6bd9c	-1.8689482e-35
24	0x08366f84	5.489972e-34
25	0x07f96b46	3.7528406e-34
26	0x8831aafd	-5.3464996e-34
27	0x8710b7a4	-1.0887323e-34
28	0x88126176	-4.404984e-34
29	0x87c5d05c	-2.9763728e-34
30	0x860e61cc	-2.6779081e-35
31	0x08211834	4.8477626e-34
32	0x07e78ada	3.4838627e-34
33	0x87e5b5b4	-3.4562886e-34
34	0x86d3ab3b	-7.962098e-35
35	0x08044e60	3.9814434e-34
36	0x06e79e40	8.712507e-35
37	0x88258c44	-4.9817763e-34
38	0x07f9645e	3.7524346e-34
39	0x88342cb1	-5.4219314e-34
40	0x06d5f6b2	8.048418e-35
41	0x87bdf3e1	-2.8580898e-34
42	0x87232eb8	-1.2276486e-34
43	0xbc461d9b	-0.012092019
44	0x080fd5f5	4.3284002e-34
45	0xbdf42d22	-0.11922671
46	0x87b6eae7	-2.752238e-34
47	0x078965aa	2.0673222e-34
48	0x07066be5	1.0112747e-34
49	0x05331be6	8.421664e-36
50	0x87c87eb7	-3.0167132e-34
51	0x07da8a50	3.2882287e-34
52	0x0744518e	1.4769368e-34
53	0x072456a6	1.2363452e-34
54	0x078b7da0	2.0988231e-34
55	0x8759fddc	-1.6399868e-34
56	0x86c2104a	-7.2998624e-35
57	0x879241f6	-2.2006407e-34
58	0x87367ff4	-1.372976e-34
59	0x083958ce	5.57758e-34
60	0x0826ef6e	5.0235256e-34
61	0x06e096c4	8.4480965e-35
62	0x883576b0	-5.4607223e-34
63	0x07f8700d	3.738075e-34
64	0x082b550a	5.1558404e-34
65	0x07f5f088	3.7004874e-34
66	0x87743920	-1.8373307e-34
67	0x07151d14	1.1218059e-34
68	0x8832ce5f	-5.3807515e-34
69	0x86bd644a	-7.124126e-35
70	0x86b7b6bc	-6.9105453e-35
71	0x87e10181	-3.3855121e-34
72	0x0753e391	1.5940751e-34
73	0x3cb137d1	0.02163306
74	0x06fe1b42	9.558423e-35
75	0x87cc4afe	-3.0738585e-34
76	0x0706aa3e	1.0131069e-34
77	0x8705a0dc	-1.005308e-34
78	0x07fbfc08	3.7914413e-34
79	0x07f5ec65	3.7002443e-34
80	0x87949fec	-2.2362559e-34
81	0x0762bc49	1.7057682e-34
82	0x881d0e17	-4.726203e-34
83	0x8657b318	-4.0568583e-35
84	0x8690614e	-5.4309756e-35
85	0x077d1e95	1.9042592e-34
86	0x073f50d4	1.4392996e-34
87	0xbde33165	-0.11093406
88	0x081a2194	4.638216e-34
89	0x082ed5ce	5.2612547e-34
90	0x07088640	1.0270955e-34
91	0x86d10740	-7.8627715e-35
92	0x0673de80	4.5866688e-35
93	0x07f17c80	3.6334824e-34
94	0x8764cd88	-1.7213214e-34
95	0x87f8df11	-3.7446e-34
96	0x8841d134	-5.832474e-34
97	0x083cccf9	5.6815136e-34
98	0x0825a97b	4.9852105e-34
99	0x08169507	4.5314164e-34
100	0x868e5283	-5.3535703e-35
101	0x082e051a	5.2367217e-34
102	0x06e3e712	8.5727437e-35
103	0x07edc17e	3.577352e-34
104	0x071337b0	1.1075416e-34
105	0x0607fc92	2.5576237e-35
106	0xbd4ab621	-0.049490098
107	0x874254c6	-1.461985e-34
108	0x3d83a893	0.06428637
109	0x084332a2	5.8740197e-34
110	0x0687f696	5.114368e-35
111	0x8815553e	-4.493826e-34
112	0x0712e7cc	1.1051938e-34
113	0x0775949e	1.8475426e-34
114	0x07c7aad3	3.0042594e-34
115	0x0813e8c6	4.4509827e-34
116	0x87fda940	-3.8166685e-34
117	0x0808b6f8	4.114109e-34
118	0x06382f37	3.4641242e-35
119	0x883cec08	-5.6851646e-34
120	0x8823cff8	-4.9295494e-34
121	0x08009d82	3.870375e-34
122	0x07c58e1a	2.9724785e-34
123	0x8690742e	-5.433749e-35
124	0xbbb4ce24	-0.005517738
125	0x061b2c04	2.9184597e-35
126	0x883b8c84	-5.643844e-34
127	0x878345e0	-1.9751758e-34
128	0x86a03f88	-6.027866e-35
129	0x87e3b0d2	-3.425909e-34
130	0x88054d8e	-4.0114397e-34
131	0x87e3ff00	-3.430504e-34
132	0x07f6f690	3.7158883e-34
133	0x882a456a	-5.123911e-34
134	0x8701c5da	-9.763025e-35
135	0x8839c812	-5.5906594e-34
136	0x874c5d08	-1.5374594e-34
137	0x3cdde164	0.027085014
138	0x08354066	5.4543406e-34
139	0x3d0ab853	0.03386719
140	0x3c67135c	0.014103737
141	0x87e9c621	-3.5174393e-34
142	0x86f2af8e	-9.1288237e-35
143	0x07ec1536	3.55218e-34
144	0x8844d96a	-5.9237174e-34
145	0x873b7e55	-1.4105442e-34
146	0x08012ff3	3.887589e-34
147	0x872259c0	-1.2213901e-34
148	0x88102353	-4.3374947e-34
149	0x0812a466	4.4128526e-34
150	0x3cc90479	0.024538266
151	0x070ae2b0	1.0448584e-34
152	0x87d489fb	-3.1979312e-34
153	0x077f5453	1.9208848e-34
154	0x079ac5e8	2.3287663e-34
155	0x86caaa9d	-7.623465e-35
156	0x07a7015c	2.5128166e-34
157	0x0794eafb	2.2406674e-34
158	0x07d60bfe	3.220619e-34
159	0x05d77300	2.0260747e-35
160	0x876cd18a	-1.7816245e-34
161	0x08292218	5.0896665e-34
162	0x07e8f1b8	3.504955e-34
163	0x8672c9b8	-4.566334e-35
164	0x880ad6b1	-4.1780233e-34
165	0x88084139	-4.100268e-34
166	0x083d9020	5.7044537e-34
167	0x87c566b8	-2.9701638e-34
168	0x07112836	1.0920405e-34
169	0x87066f2a	-1.0113708e-34
170	0x864a19f8	-3.8011056e-35
171	0xbca0b2a2	-0.019616429
172	0x0830fef0	5.326275e-34
173	0x3c87a350	0.016557366
174	0x883deed6	-5.715587e-34
175	0x07f9b84e	3.757368e-34
176	0x87e55af3	-3.4509546e-34
177	0x07ab146f	2.574123e-34
178	0x07ff43ce	3.8407988e-34
179	0x0717c8d4	1.1418995e-34
180	0x081f6a82	4.797252e-34
181	0x069f6c54	5.9968326e-35
182	0x88299c17	-5.104007e-34
183	0x07174342	1.1379743e-34
184	0x881731cc	-4.5498446e-34
185	0x066a84e6	4.4108147e-35
186	0x07cbaa00	3.0643962e-34
187	0x083d87a0	5.7034545e-34
188	0x08283c5f	5.0626627e-34
189	0x07deae42	3.3505267e-34
190	0x8712b931	-1.1038242e-34
191	0x07930c2b	2.2125253e-34
192	0x881c7d7c	-4.709205e-34
193	0x866ac904	-4.4158191e-35
194	0x854cb730	-9.62568e-36
195	0x869edee0	-5.976048e-35
196	0x0819aa44	4.624191e-34
197	0x88387fab	-5.552056e-34
198	0x06f06ab2	9.043474e-35
199	0x881631c9	-4.5197505e-34
200	0x06ad3afb	6.516203e-35
201	0x3c62dac2	0.013846101
202	0x0821b6a6	4.8663877e-34
203	0x0757782a	1.6210115e-34
204	0x87af71d6	-2.639798e-34
205	0x87c57dc8	-2.9715193e-34
206	0x87403b14	-1.4461836e-34
207	0x07989fab	2.2964262e-34
208	0x06b3f69e	6.769469e-35
209	0x87be3e44	-2.862462e-34
210	0x07844162	1.989958e-34
211	0x87752516	-1.844265e-34
212	0x077e0474	1.9110145e-34
213	0x87c9823d	-3.0319666e-34
214	0x87c54538	-2.9681949e-34
215	0x3c589c9a	0.0132209305
216	0x875a7500	-1.643488e-34
217	0x8842ec34	-5.8657407e-34
218	0x88293fc2	-5.0931535e-34
219	0x86b4c698	-6.800028e-35
220	0x86f7634e	-9.305699e-35
221	0x07dfc932	3.3671563e-34
222	0x87319977	-1.3361099e-34
223	0x08225e80	4.8861186e-34
224	0x080b9b9c	4.201171e-34
225	0x06908850	5.4367073e-35
226	0x082312c4	4.9073087e-34
227	0x82db5600	-3.222852e-37
228	0x07a4f582	2.4820274e-34
229	0x06f949cd	9.377183e-35
230	0x870cd66d	-1.0595443e-34
231	0x876e913c	-1.794781e-34
232	0x873b43fe	-1.4088297e-34
233	0x0806bbe8	4.054504e-34
234	0xbcb8a700	-0.02254057
235	0x881ae6e6	-4.661411e-34
236	0xbc6a66c5	-0.014306729
237	0x8831eea1	-5.3544507e-34
238	0x87ea3d5f	-3.5244477e-34
239	0x87e34297	-3.4194302e-34
240	0x88093d56	-4.129904e-34
241	0x86d4969e	-7.996685e-35
242	0x07a86d36	2.534202e-34
243	0x87f1c0ac	-3.6374892e-34
244	0x078717b4	2.0326474e-34
245	0x083e0954	5.718701e-34
246	0x869b73fc	-5.8474944e-35
247	0x079aefa8	2.3312202e-34
248	0x082f0336	5.266592e-34
249	0x879f36f0	-2.395595e-34
250	0x870af290	-1.0453249e-34
251	0x85a72c2c	-1.572083e-35
252	0xbd07564b	-0.03304128
253	0x868a566e	-5.203683e-35
254	0x06dfddea	8.420935e-35
255	0x07c36280	2.9398232e-34

sequential/dense_3/MatMul f4 [10, 128]
0	0x3f9fd46e	1.2486703
1	0xc067c764	-3.6215448
2	0x3ec75955	0.38935342
3	0x3f2f9f2d	0.6860226
4	0x4047dcdc	3.1228552
5	0x3f5d764a	0.8650862
6	0xbdf459c7	-0.11931186
7	0x3ff591f1	1.9185163
8	0xc09842b1	-4.758141
9	0x40360879	2.8442671
10	0x4066aec9	3.604418
11	0xc0a1f000	-5.060547
12	0x3fd6cc61	1.6781121
13	0xbf5da4a8	-0.8657937
14	0x3fb66901	1.4250795
15	0x40228558	2.5393887
16	0x3d8ef2b3	0.06979885
17	0xc0f078a1	-7.514725
18	0x3fce1817	1.6101102
19	0x400442dc	2.0665808
20	0xbfa78fb7	-1.3090733
21	0xc08b0c9f	-4.3452907
22	0x4074ff78	3.8280926
23	0x3dfaf6e0	0.12254119
24	0x403f25ef	2.9866903
25	0x40741737	3.813917
26	0x3e3053c6	0.17219457
27	0x3e8e7440	0.27823067
28	0x3dca6c2b	0.09883913
29	0x3f4b0ea0	0.7931919
30	0xbe3ec7c7	-0.18630897
31	0x3ea85056	0.3287379
32	0xc0904bf9	-4.509274
33	0x3f96165f	1.1725577
34	0xbfcfffca	-1.6249936
35	0xc0379550	-2.8684883
36	0x3fd7c04b	1.6855558
37	0x3b4944e2	0.0030711223
38	0x3e103d9e	0.14086005
39	0xc056707a	-3.350615
40	0x3fc335da	1.5250809
41	0xc0b569ec	-5.66918
42	0x3f3e03ea	0.7422472
43	0x3fa39365	1.2779356
44	0xc06f282b	-3.7368267
45	0x3fc5e9c9	1.546197
46	0x4007f4ad	2.1243088
47	0xbfe62551	-1.7980138
48	0x3f110f60	0.56664085
49	0xc0896e97	-4.2947497
50	0x3ddf9b5a	0.10918303
51	0xc0f30eba	-7.5955477
52	0xbe32c386	-0.17457399
53	0x3fce92ac	1.6138511
54	0x4002f0d3	2.0459487
55	0xc075946d	-3.8371842
56	0xbf0be5af	-0.54647344
57	0xbe33d0ee	-0.17560169
58	0xbbb618ee	-0.005557171
59	0x3d9190d1	0.071077
60	0xbf5ea7c3	-0.86974734
61	0x3f0153d5	0.5051854
62	0xbe2f5bfd	-0.17124934
63	0xc09bec71	-4.8726125
64	0xbe577ed2	-0.21044472
65	0x3d41d352	0.04732067
66	0x3f9f98ba	1.2468483
67	0x3f3f32d6	0.74686944
68	0xc0314359	-2.7697356
69	0xbdc85d44	-0.09783414
70	0xc0365804	-2.849122
71	0xc02e9c60	-2.7282944
72	0xbf0a2f9d	-0.539789
73	0xc11b56ba	-9.7086735
74	0x3f556f60	0.8337307
75	0xc0979df5	-4.738032
76	0xbcf92b09	-0.030416029
77	0xc137c021	-11.484406
78	0x3f0c0359	0.5469261
79	0xbc8f5023	-0.017494267
80	0x3fe866d2	1.8156378
81	0xbb4a3a7f	-0.003085762
82	0xc084999a	-4.14375
83	0xc080697b	-4.012876
84	0x3e21649e	0.15761039
85	0xc0fbd8dc	-7.870222
86	0x3fbcef6d	1.4760567
87	0x3fa3a8a5	1.2785841
88	0xc038509e	-2.8799205
89	0xc01bdd5f	-2.4353864
90	0x403bd920	2.9351273
91	0xc02baaca	-2.6822991
92	0xbe990ded	-0.29893437
93	0xbe07858d	-0.1323454
94	0x3f8362d0	1.026453
95	0xbd14a58e	-0.036290698
96	0xbe0b0541	-0.13576223
97	0xc091f3a7	-4.5609927
98	0xbf0a00f5	-0.5390771
99	0xbe324098	-0.17407453
100	0x400d42f3	2.2072113
101	0x3f198c76	0.5997995
102	0x4070a9b4	3.7603579
103	0x3edb196f	0.42792842
104	0xc0862eb3	-4.1932006
105	0x405aab9f	3.416725
106	0xc0854eb2	-4.1658564
107	0xbecb6ab3	-0.39729843
108	0xc064f73c	-3.57759
109	0x3f8c7812	1.0974143
110	0x3f383e0f	0.71969694
111	0x3f8cec9d	1.1009709
112	0xc0837f62	-4.1092997
113	0xbef833ad	-0.48476925
114	0xc0b44a18	-5.6340446
115	0x3e12875c	0.14309448
116	0xbe1d37d5	-0.1535333
117	0x3f807152	1.0034583
118	0x403d8e28	2.9618015
119	0xc0abacb4	-5.364832
120	0xc0b13837	-5.538112
121	0xc043ef0c	-3.0614653
122	0x40356044	2.8340006
123	0xc0c2cc0c	-6.087408
124	0xbedcbf1e	-0.4311456
125	0x402f1998	2.735937
126	0x400f8962	2.2427602
127	0xc0a1b116	-5.052867
128	0xc0535a61	-3.3023913
129	0x3fc202d3	1.5157112
130	0xc104f7ee	-8.31053
131	0xbf018bff	-0.5060424
132	0xc0f9e3b3	-7.8090453
133	0xbfa0824e	-1.2539766
134	0x3cf392dd	0.029733116
135	0xc11cef45	-9.808415
136	0x3f964757	1.1740521
137	0xc110824d	-9.031812
138	0xc0a92477	-5.2857013
139	0x3fc279ed	1.5193459
140	0x3f962ee8	1.1733065
141	0x3f379830	0.71716595
142	0xc042bee9	-3.0429022
143	0xc1101dd5	-9.007283
144	0x3ac2f534	0.0014874102
145	0x40102b26	2.2526336
146	0x3fb0a8aa	1.3801472
147	0xc0736ee5	-3.8036435
148	0x3f66edb3	0.9020645
149	0xc13acf2b	-11.675578
150	0xc0f9cf54	-7.8065586
151	0xbded6a12	-0.11592497
152	0xc119ffdd	-9.624967
153	0xc121a209	-10.102059
154	0xbb9e434a	-0.004829799
155	0x3fb00e03	1.3754276
156	0xbc7bff3a	-0.015380675
157	0xbeb907c4	-0.36138737
158	0x3e399542	0.18123344
159	0xbf877260	-1.058178
160	0xc005e42c	-2.0920515
161	0xc01e788e	-2.476108
162	0x3f9920b0	1.19631
163	0xbe13046b	-0.14357154
164	0xc07f5e2e	-3.9901233
165	0xbd59c036	-0.053161822
166	0x3e474f36	0.1946381
167	0x40022ca2	2.0339742
168	0xc024ff2c	-2.5780745
169	0x3ffc4ea5	1.97115
170	0xbe99de8a	-0.30052596
171	0xbe20a2e0	-0.15687132
172	0x3fa5fe5e	1.2968252
173	0xbf9ad806	-1.2097175
174	0xc10a15ad	-8.630292
175	0x3fca60fb	1.5810846
176	0xbfafea99	-1.3743469
177	0xc0ad6b4a	-5.419347
178	0xbd2b4db2	-0.041822143
179	0x3ff2562c	1.8932548
180	0x3e215449	0.15754808
181	0x3f6e1627	0.9300255
182	0xc0aafa60	-5.3430634
183	0xbed1057c	-0.40824497
184	0xbe6c3723	-0.23067908
185	0xbce3c5a3	-0.027804201
186	0xbe12154e	-0.1426594
187	0x3fffa3d9	1.9971877
188	0x4003e933	2.0611084
189	0x3f8e028b	1.1094526
190	0x3d41d6bf	0.04732394
191	0x4019f2b0	2.4054375
192	0x3e3ad1c9	0.18244089
193	0xbc247dce	-0.01003976
194	0x3ff487b2	1.9103911
195	0xbf403d77	-0.7509379
196	0x3f67790b	0.9041907
197	0x3e00e218	0.12586248
198	0x3f9e3055	1.23585
199	0x3fd3c505	1.65445
200	0xc03f0ca5	-2.9851468
201	0x3fed4c52	1.8538916
202	0x3e3a7805	0.18209846
203	0x4085c58b	4.180364
204	0x3e21c235	0.1579674
205	0x4076ffec	3.8593702
206	0xbe6283c4	-0.22120577
207	0x3e3ec0f0	0.18628287
208	0x3ee5c4c3	0.4487668
209	0xbf6c61cb	-0.9233672
210	0x3fa79c49	1.309457
211	0x3fd75c35	1.6825014
212	0xbe4406ac	-0.1914317
213	0x3f367786	0.7127613
214	0x3d8f8858	0.070084274
215	0xc115c5d6	-9.3608
216	0xc0cf9d5d	-6.4879594
217	0x3faace4e	1.3344209
218	0xc0ce8fe4	-6.455065
219	0xbfa7ab22	-1.30991
220	0x4060c7fe	3.5122066
221	0x3e39778c	0.1811201
222	0x3dae0b5f	0.084982626
223	0x3f842240	1.0322952
224	0x3fee007a	1.8593895
225	0x4041891a	3.023993
226	0xc01295c1	-2.2903903
227	0x3e4fb4f3	0.2028387
228	0xc11ebd07	-9.921149
229	0x3f2521d2	0.6450473
230	0xc0c40c20	-6.12648
231	0x3f55cebb	0.8351857
232	0xc0a7a1a9	-5.238484
233	0xc0efe02a	-7.496114
234	0x3fb4287a	1.4074852
235	0x400c1db5	2.1893132
236	0xbfe977ee	-1.8239725
237	0xbff4356e	-1.9078805
238	0xbf6a20b6	-0.9145616
239	0xbff6f185	-1.9292456
240	0x3fde8a59	1.738597
241	0x3f6b616b	0.91945523
242	0x3fc94b4f	1.5726107
243	0x3af871a8	0.0018954771
244	0x3e4d1c7e	0.200304
245	0x3ec3936b	0.38198408
246	0xc0f4c262	-7.6487284
247	0x400ef086	2.2334304
248	0x3ff2de17	1.8974026
249	0x3e6adfb6	0.22936901
250	0x3f79f7c0	0.9764366
251	0x3fc1137d	1.5084072
252	0xbf35e0a0	-0.71045876
253	0xbf8f6697	-1.1203183
254	0xc0926810	-4.575203
255	0x3fd9865f	1.6994132
